========================================================================================================================
Layer (type:depth-idx)                   Input Shape      Kernel Shape     Output Shape     Param #          Trainable
========================================================================================================================
ResNet                                   [1, 3, 32, 32]   --               [1, 10]          --               True
├─Conv2d: 1-1                            [1, 3, 32, 32]   [3, 3]           [1, 64, 32, 32]  1,728            True
├─BatchNorm2d: 1-2                       [1, 64, 32, 32]  --               [1, 64, 32, 32]  128              True
├─Sequential: 1-3                        [1, 64, 32, 32]  --               [1, 64, 32, 32]  --               True
│    └─BasicBlock: 2-1                   [1, 64, 32, 32]  --               [1, 64, 32, 32]  --               True
│    │    └─Conv2d: 3-1                  [1, 64, 32, 32]  [3, 3]           [1, 64, 32, 32]  36,864           True
│    │    └─BatchNorm2d: 3-2             [1, 64, 32, 32]  --               [1, 64, 32, 32]  128              True
│    │    └─Conv2d: 3-3                  [1, 64, 32, 32]  [3, 3]           [1, 64, 32, 32]  36,864           True
│    │    └─BatchNorm2d: 3-4             [1, 64, 32, 32]  --               [1, 64, 32, 32]  128              True
│    │    └─Sequential: 3-5              [1, 64, 32, 32]  --               [1, 64, 32, 32]  --               --
│    └─BasicBlock: 2-2                   [1, 64, 32, 32]  --               [1, 64, 32, 32]  --               True
│    │    └─Conv2d: 3-6                  [1, 64, 32, 32]  [3, 3]           [1, 64, 32, 32]  36,864           True
│    │    └─BatchNorm2d: 3-7             [1, 64, 32, 32]  --               [1, 64, 32, 32]  128              True
│    │    └─Conv2d: 3-8                  [1, 64, 32, 32]  [3, 3]           [1, 64, 32, 32]  36,864           True
│    │    └─BatchNorm2d: 3-9             [1, 64, 32, 32]  --               [1, 64, 32, 32]  128              True
│    │    └─Sequential: 3-10             [1, 64, 32, 32]  --               [1, 64, 32, 32]  --               --
├─Sequential: 1-4                        [1, 64, 32, 32]  --               [1, 128, 16, 16] --               True
│    └─BasicBlock: 2-3                   [1, 64, 32, 32]  --               [1, 128, 16, 16] --               True
│    │    └─Conv2d: 3-11                 [1, 64, 32, 32]  [3, 3]           [1, 128, 16, 16] 73,728           True
│    │    └─BatchNorm2d: 3-12            [1, 128, 16, 16] --               [1, 128, 16, 16] 256              True
│    │    └─Conv2d: 3-13                 [1, 128, 16, 16] [3, 3]           [1, 128, 16, 16] 147,456          True
│    │    └─BatchNorm2d: 3-14            [1, 128, 16, 16] --               [1, 128, 16, 16] 256              True
│    │    └─Sequential: 3-15             [1, 64, 32, 32]  --               [1, 128, 16, 16] 8,448            True
│    └─BasicBlock: 2-4                   [1, 128, 16, 16] --               [1, 128, 16, 16] --               True
│    │    └─Conv2d: 3-16                 [1, 128, 16, 16] [3, 3]           [1, 128, 16, 16] 147,456          True
│    │    └─BatchNorm2d: 3-17            [1, 128, 16, 16] --               [1, 128, 16, 16] 256              True
│    │    └─Conv2d: 3-18                 [1, 128, 16, 16] [3, 3]           [1, 128, 16, 16] 147,456          True
│    │    └─BatchNorm2d: 3-19            [1, 128, 16, 16] --               [1, 128, 16, 16] 256              True
│    │    └─Sequential: 3-20             [1, 128, 16, 16] --               [1, 128, 16, 16] --               --
├─Sequential: 1-5                        [1, 128, 16, 16] --               [1, 256, 8, 8]   --               True
│    └─BasicBlock: 2-5                   [1, 128, 16, 16] --               [1, 256, 8, 8]   --               True
│    │    └─Conv2d: 3-21                 [1, 128, 16, 16] [3, 3]           [1, 256, 8, 8]   294,912          True
│    │    └─BatchNorm2d: 3-22            [1, 256, 8, 8]   --               [1, 256, 8, 8]   512              True
│    │    └─Conv2d: 3-23                 [1, 256, 8, 8]   [3, 3]           [1, 256, 8, 8]   589,824          True
│    │    └─BatchNorm2d: 3-24            [1, 256, 8, 8]   --               [1, 256, 8, 8]   512              True
│    │    └─Sequential: 3-25             [1, 128, 16, 16] --               [1, 256, 8, 8]   33,280           True
│    └─BasicBlock: 2-6                   [1, 256, 8, 8]   --               [1, 256, 8, 8]   --               True
│    │    └─Conv2d: 3-26                 [1, 256, 8, 8]   [3, 3]           [1, 256, 8, 8]   589,824          True
│    │    └─BatchNorm2d: 3-27            [1, 256, 8, 8]   --               [1, 256, 8, 8]   512              True
│    │    └─Conv2d: 3-28                 [1, 256, 8, 8]   [3, 3]           [1, 256, 8, 8]   589,824          True
│    │    └─BatchNorm2d: 3-29            [1, 256, 8, 8]   --               [1, 256, 8, 8]   512              True
│    │    └─Sequential: 3-30             [1, 256, 8, 8]   --               [1, 256, 8, 8]   --               --
├─Sequential: 1-6                        [1, 256, 8, 8]   --               [1, 512, 4, 4]   --               True
│    └─BasicBlock: 2-7                   [1, 256, 8, 8]   --               [1, 512, 4, 4]   --               True
│    │    └─Conv2d: 3-31                 [1, 256, 8, 8]   [3, 3]           [1, 512, 4, 4]   1,179,648        True
│    │    └─BatchNorm2d: 3-32            [1, 512, 4, 4]   --               [1, 512, 4, 4]   1,024            True
│    │    └─Conv2d: 3-33                 [1, 512, 4, 4]   [3, 3]           [1, 512, 4, 4]   2,359,296        True
│    │    └─BatchNorm2d: 3-34            [1, 512, 4, 4]   --               [1, 512, 4, 4]   1,024            True
│    │    └─Sequential: 3-35             [1, 256, 8, 8]   --               [1, 512, 4, 4]   132,096          True
│    └─BasicBlock: 2-8                   [1, 512, 4, 4]   --               [1, 512, 4, 4]   --               True
│    │    └─Conv2d: 3-36                 [1, 512, 4, 4]   [3, 3]           [1, 512, 4, 4]   2,359,296        True
│    │    └─BatchNorm2d: 3-37            [1, 512, 4, 4]   --               [1, 512, 4, 4]   1,024            True
│    │    └─Conv2d: 3-38                 [1, 512, 4, 4]   [3, 3]           [1, 512, 4, 4]   2,359,296        True
│    │    └─BatchNorm2d: 3-39            [1, 512, 4, 4]   --               [1, 512, 4, 4]   1,024            True
│    │    └─Sequential: 3-40             [1, 512, 4, 4]   --               [1, 512, 4, 4]   --               --
├─Linear: 1-7                            [1, 512]         --               [1, 10]          5,130            True
========================================================================================================================
Total params: 11,173,962
Trainable params: 11,173,962
Non-trainable params: 0
Total mult-adds (M): 555.43
========================================================================================================================
Input size (MB): 0.01
Forward/backward pass size (MB): 9.83
…
